…
, padding='same', activation='relu')) autoencoder.add(UpSampling2D()) autoencoder.add(Conv2D(16, kernel_size=3, activation='relu')) autoencoder.add(UpSampling2D()) autoencoder.add(Conv2D(1, kernel_size=3, padding='same', activation='sigmoid'))  # \uc804\uccb4 \uad6c\uc870\ub97c \ud655\uc778\ud574 \ubd05\ub2c8\ub2e4. autoencoder.summary() <pre>Model: \"sequential_4\"\n_________________________________________________________________\nLayer (type)                 Output Shape              Param #   \n=================================================================\nconv2d_8 (Conv2D)            (None, 28, 28, 16)        160       \n_________________________________________________________________\nmax_pooling2d (MaxPooling2D) (None, 14, 14, 16)        0         \n_________________________________________________________________\nconv2d_9 (Conv2D)            (None, 14, 14, 8)         1160      \n_________________________________________________________________\nmax_pooling2d_1 (MaxPooling2 (None, 7, 7, 8)           0         \n_________________________________________________________________\nconv2d_10 (Conv2D)           (None, 4, 4, 8)           584       \n_________________________________________________________________\nconv2d_11 (Conv2D)           (None, 4, 4, 8)           584       \n_________________________________________________________________\nup_sampling2d_4 (UpSampling2 (None, 8, 8, 8)           0         \n_________________________________________________________________\nconv2d_12 (Conv2D)           (None, 8, 8, 8)           584       \n_________________________________________________________________\nup_sampling2d_5 (UpSampling2 (None, 16, 16, 8)         0         \n_________________________________________________________________\nconv2d_13 (Conv2D)           (None, 14, 14, 16)        1168      \n_________________________________________________________________\nup_sampling2d_6 (UpSampling2 (None, 28, 28, 16)        0         \n_________________________________________________________________\nconv2d_14 (Conv2D)           (None, 28, 28, 1)         145       \n=================================================================\nTotal params: 4,385\nTrainable params: 4,385\nNon-trainable params: 0\n_________________________________________________________________\n</pre> In\u00a0[4]: Copied! <pre># \ucef4\ud30c\uc77c \ubc0f \ud559\uc2b5\uc744 \ud558\ub294 \ubd80\ubd84\uc785\ub2c8\ub2e4.\nautoencoder.compile(optimizer='adam', loss='binary_crossentr
…
Conv2D(64, (3, 3))) model.add(Activation('relu')) model.add(MaxPooling2D(pool_size=(2, 2)))  model.add(Flatten()) model.add(Dense(64)) model.add(Activation('relu')) model.add(Dropout(0.5)) model.add(Dense(1)) model.add(Activation('sigmoid')) model.summary() <pre>Found 160 images belonging to 2 classes.\nFound 120 images belonging to 2 classes.\nModel: \"sequential\"\n_________________________________________________________________\nLayer (type)                 Output Shape              Param #   \n=================================================================\nconv2d (Conv2D)              (None, 148, 148, 32)      896       \n_________________________________________________________________\nactivation (Activation)      (None, 148, 148, 32)      0         \n_________________________________________________________________\nmax_pooling2d (MaxPooling2D) (None, 74, 74, 32)        0         \n_________________________________________________________________\nconv2d_1 (Conv2D)            (None, 72, 72, 32)        9248      \n_________________________________________________________________\nactivation_1 (Activation)    (None, 72, 72, 32)        0         \n_________________________________________________________________\nmax_pooling2d_1 (MaxPooling2 (None, 36, 36, 32)        0         \n_________________________________________________________________\nconv2d_2 (Conv2D)            (None, 34, 34, 64)        18496     \n_________________________________________________________________\nactivation_2 (Activation)    (None, 34, 34, 64)        0         \n_________________________________________________________________\nmax_pooling2d_2 (MaxPooling2 (None, 17, 17, 64)        0         \n_________________________________________________________________\nflatten (Flatten)            (None, 18496)             0         \n_________________________________________________________________\ndense (Dense)                (None, 64)                1183808   \n_________________________________________________________________\nactivation_3 (Activation)    (None, 64)                0         \n_________________________________________________________________\ndropout (Dropout)            (None, 64)                0         \n_________________________________________________________________\ndense_1 (Dense)              (None, 1)                 65        \n_________________________________________________________________\nactivation_4 (Activation)    (None, 1)                 0         \n=================================================================\nTotal params: 1,212,513\nTrainable params: 1,212,513\nNon-trainable params: 0\n_________________________________________________________________\n</pre> In\u00a0[2]: Copied! <pre>!pip install SciPy\n</pre> !pip install SciPy <pre>Requirement already satisfied: SciPy in c:\\users\\gilbut\\anaconda3\\envs\\deep_learning\\l
…
ensorflow/keras-applications/vgg16/vgg16_weights_tf_dim_ordering_tf_kernels_notop.h5\n58892288/58889256 [==============================] - 5s 0us/step\n58900480/58889256 [==============================] - 5s 0us/step\nModel: \"vgg16\"\n_________________________________________________________________\nLayer (type)                 Output Shape              Param #   \n=================================================================\ninput_1 (InputLayer)         [(None, 150, 150, 3)]     0         \n_________________________________________________________________\nblock1_conv1 (Conv2D)        (None, 150, 150, 64)      1792      \n_________________________________________________________________\nblock1_conv2 (Conv2D)        (None, 150, 150, 64)      36928     \n_________________________________________________________________\nblock1_pool (MaxPooling2D)   (None, 75, 75, 64)        0         \n_________________________________________________________________\nblock2_conv1 (Conv2D)        (None, 75, 75, 128)       73856     \n_________________________________________________________________\nblock2_conv2 (Conv2D)        (None, 75, 75, 128)       147584    \n_________________________________________________________________\nblock2_pool (MaxPooling2D)   (None, 37, 37, 128)       0         \n_________________________________________________________________\nblock3_conv1 (Conv2D)        (None, 37, 37, 256)       295168    \n_________________________________________________________________\nblock3_conv2 (Conv2D)        (None, 37, 37, 256)       590080    \n_________________________________________________________________\nblock3_conv3 (Conv2D)        (None, 37, 37, 256)       590080    \n_________________________________________________________________\nblock3_pool (MaxPooling2D)   (None, 18, 18, 256)       0         \n_________________________________________________________________\nblock4_conv1 (Conv2D)        (None, 18, 18, 512)       1180160   \n_________________________________________________________________\nblock4_conv2 (Conv2D)        (None, 18, 18, 512)       2359808   \n_________________________________________________________________\nblock4_conv3 (Conv2D)        (None, 18, 18, 512)       2359808   \n_________________________________________________________________\nblock4_pool (MaxPooling2D)   (None, 9, 9, 512)         0         \n_________________________________________________________________\nblock5_conv1 (Conv2D)        (None, 9, 9, 512)         2359808   \n_________________________________________________________________\nblock5_conv2 (Conv2D)        (None, 9, 9, 512)         2359808   \n_________________________________________________________________\nblock5_conv3 (Conv2D)        (None, 9, 9, 512)         2359808   \n_________________________________________________________________\nblock5_pool (MaxPooling2D)   (None, 4, 4, 512)         0         \n=================================================================\nTotal params: 14,714,688\nTrainable params: 0\nNon-trainable params: 14,714,688\n_________________________________________________________________\nModel: \"sequential_1\"\n_________________________________________________________________\nLayer (type)                 Output Shape              Param #   \n=================================================================\nvgg16 (Functional)           (None, 4, 4, 512)         14714688  \n_________________________________________________________________\nflatten_1 (Flatten)          (None, 8192)              0         \n_________________________________________________________________\ndense_2 (Dense)              (None, 64)                524352    \n_________________________________________________________________\nactivation_5 (Activation)    (None, 64)                0         \n_________________________________________________________________\ndropout_1 (Dropout)          (None, 64)                0         \n_________________________________________________________________\ndense_3 (Dense)              (None, 1)                 65        \n_________________________________________________________________\nactivation_6 (Activation)    (None, 1)                 0         \n=================================================================\nTotal params: 15,239,105\nTrainable params: 524,417\nNon-trainable params: 14,714,688\n_________________________________________________________________\n</pre> In\u00a0[6]: Copied! <pre># \ubaa8\ub378\uc758 \uc2e4\ud589 \uc635\uc158\uc744 \uc124\uc815\ud569\ub2c8\ub2e4. \nfinetune_model.compile(loss='binary_crossentropy
…
sk.pub/#emp_id","title":"\uc778\ub371\uc2a4 \uad6c\uc870 \uc608\uc2dc (EMP_ID \uc778\ub371\uc2a4)","text":"<pre><code>Index on EMP_ID                           Heap\n\u250c\u2500\u2500\u2500\u2500\u2500\u2500\u2500\u2500\u2500\u2500\u2500\u2500\u2500\u2500\u2500\u2500\u2500\u2500\u2500\u2500\u2500\u2500\u2500\u2500\u2500\u2500\u2500\u2500\u2500\u2510           \u250c\u2500\u2500\u2500\u2500\u2500\u2500\u2500\u2500\u2500\u2500\u2500\u2500\u2500\u2500\u2500\u2500\u2500\u2500\u2500\u2500\u2500\u2510\n\u2502 Page 0                      \u2502           \u2502 Page 0              \u2502\n\u2502 10 (1,0) | 20 (2,0) | 30 (3,0)\u2502  \u2500\u2500\u2192   \u2502 Rows 1,2,3          \u2502\n\u2502 40 (4,1) | 50 (5,1) | 60 (6,1)\u2502        \u251c\u2500\u2500\u2500\u2500\u2500\u2500\u2500\u2500\u2500\u2500\u2500\u2500\u2500\u2500\u2500\u2500\u2500\u2500\u2500\u2500\u2500\u2524\n\u2502 70 (7,2) | 80 (8,2) | 90 (9,2)\u2502        \u2502 Page 1              \u2502\n\u251c\u2500\u2500\u2500\u2500\u2500\u2500\u2500\u2500\u2500\u2500\u2500\u2500\u2500\u2500\u2500\u2500\u2500\u2500\u2500\u2500\u2500\u2500\u2500\u2500\u2500\u2500\u2500\u2500\u2500\u2524           \u2502 Rows 4,5,6          \u2502\n\u2502 Page 1                      \u2502           \u251c\u2500\u2500\u2500\u2500\u2500\u2500\u2500\u2500\u2500\
…
